Y2S2/AI/Assignment7/data/net.pt (torch, 4883 bytes, 3 tensors)

hidden.weight f4 [200, 2]
000000 69 42 dd bd 9a 9c bf 3e d2 06 02 be 11 d0 46 bd
       -0.10803682 0.37424165 -0.12697914 -0.04853827
000010 16 e5 34 bf 9f 47 0d be 41 6f bb 3e 93 c6 7c be
       -0.7066206 -0.13796853 0.36608317 -0.24685125
000020 3c aa ed 3c ca 56 28 bf 78 d0 80 be 7c 75 a2 bd
       0.029011838 -0.6575743 -0.2515905 -0.079325646
000030 3d 99 3e be 2f 4f fe 3e 33 10 42 3e 38 13 b2 be
       -0.18613143 0.49669787 0.18951492 -0.34780288
000040 4b b8 9d be 5f 28 eb 3d 6a 57 c7 be 3e 47 f0 bd
       -0.30804667 0.114823096 -0.3893388 -0.11732338
000050 8b ee d3 be 13 16 18 3f a1 40 98 be 33 50 a9 be
       -0.4139293 0.5940868 -0.29736808 -0.33069
000060 5d 9b b6 3e 47 fb a9 3e 83 f0 b2 3e 4e 35 13 3f
       0.35665408 0.33199522 0.3494912 0.5750321
000070 c6 09 08 3e a9 f2 fb bd 07 cc df be 6c da 1c bf
       0.13284978 -0.12302143 -0.43710348 -0.61270785
000080 16 3c d6 be 64 f6 88 3c f6 ae 01 bf 55 f0 17 3f
       -0.41842717 0.01671905 -0.50657594 0.5935109
000090 27 3d 42 be 92 c5 74 bd df 60 13 bf 54 db 06 3f
       -0.1896864 -0.05975873 -0.5756969 0.5267842
0000a0 dc 06 05 be c0 27 99 3e 87 e9 30 3f ad 2a f2 3e
       -0.12990898 0.2991314 0.69106334 0.47298184
0000b0 b9 98 09 3f 4e 4b 56 3d f4 6d e5 3c 8e 37 37 3e
       0.5374866 0.05231791 0.028006531 0.17892286
0000c0 1e 14 24 bf 19 31 f8 be 5e ac bd be 61 1f 90 3e
       -0.64093196 -0.4847496 -0.37045568 0.2814894
0000d0 ab fc 24 3f 8b 45 94 be 05 94 ab bd 70 ac b7 be
       0.6444804 -0.28959307 -0.08377842 -0.35873747
0000e0 ce db 23 3a 37 eb d7 be 9b 02 14 be be a1 3a bd
       0.000625071 -0.42171642 -0.14454119 -0.045564406
0000f0 ab fd 29 3e 00 df 08 3f 63 4b 1f bf 1f 3f 32 be
       0.16600673 0.5346527 -0.62224406 -0.17406891
000100 15 a0 7a bd d4 6e 11 3f bf 6d 6d 3e 22 bf 97 3d
       -0.061187822 0.56809735 0.23186396 0.074095026
000110 a5 63 21 bf 1a 9f 19 be fc 45 06 bf b7 52 1d 3f
       -0.6304267 -0.15002099 -0.5245054 0.6145434
000120 fc cf e5 3e c0 ec d4 be 78 46 1a 3f d8 fa f5 be
       0.44885242 -0.41586876 0.60263777 -0.4804294
000130 92 8a 0e bf 61 67 7e be 3f 8a 81 3e 85 68 ed 3d
       -0.5568019 -0.24844123 0.25300786 0.11592201
000140 c7 2b 02 3d 63 a3 f3 3e c9 db ff be 71 e2 a9 be
       0.03178003 0.47585592 -0.4997237 -0.33180574
000150 ae 25 b0 3e e6 a2 1b 3f 0c 9f 87 3d 06 14 97 be
       0.34403747 0.6079544 0.06622133 -0.29507464
000160 a0 cc 1b be 13 e7 1b 3f d3 36 c4 3e f4 ed 11 3d
       -0.15214777 0.60899466 0.38323078 0.03562732
000170 d1 89 40 be 3d 8d 8b 3e a5 6e 25 be 01 0b d8 be
       -0.18802573 0.27256194 -0.16155489 -0.42195895
000180 51 2f 5a be 4d 27 b9 3e e9 19 79 bb 4e fb 2e 3f
       -0.21307112 0.36162797 -0.0038009828 0.6835221
000190 28 fa f5 3e 5a 7e ce 3e 73 0b 2e bf c6 aa 8e 3e
       0.48042417 0.40330774 -0.6798622 0.27864665
0001a0 23 d8 01 3e 23 7d 44 3d e2 bb c8 3c 3c df d4 3e
       0.12680106 0.047970902 0.024503652 0.41576564
0001b0 fa 20 a5 bc 0c ab 15 bf 51 dd ee bd 5a ec a1 be
       -0.020157326 -0.5846412 -0.116633065 -0.31625634
0001c0 da 8a 7c bd 8c 87 12 bf 4a 08 af bd 31 8e 90 be
       -0.061655857 -0.5723808 -0.08546503 -0.28233483
0001d0 08 c0 03 3f 34 d4 07 3f d6 ee c5 3e ab 35 fe 3e
       0.5146489 0.5305817 0.3865878 0.4965032
0001e0 40 20 70 bd a4 96 e4 3e 8f 05 0f bf 78 5d 73 3c
       -0.058624506 0.4464618 -0.55867857 0.014853828
0001f0 b9 08 39 be 22 00 dc 3e 53 a3 3a be bd 20 22 3e
       -0.18069734 0.4296885 -0.18226366 0.15832801
000200 87 aa d9 be 84 2a 2a 3f a1 78 0d 3e 95 00 b1 3d
       -0.42512915 0.66471124 0.13815548 0.08642689
000210 69 53 da be cc e9 22 bf 3b a9 24 3f 4d 2e 61 3e
       -0.42641762 -0.63637996 0.64320725 0.21990319
000220 fc b4 d9 be ca 01 fa 3e f5 34 90 3e a4 3f 2c 3f
       -0.42520893 0.4882949 0.28165403 0.6728461
000230 21 cf 45 3d fa 71 2b be b9 75 04 3e ad 0d c8 3e
       0.048293237 -0.16742697 0.12935533 0.39072934
000240 6e 4c f2 3e e6 21 9e bd 48 fc 22 3f 60 b6 9b 3d
       0.47323936 -0.07721309 0.636662 0.07603145
000250 df 62 28 3e 27 a6 1c 3f 07 8f ed be e4 fd 7d 3d
       0.16443966 0.6119103 -0.46398184 0.062009707
000260 eb 69 29 3f d2 44 ab bd f8 e3 d9 be 1b 16 29 3f
       0.66177243 -0.08362736 -0.4255674 0.66049355
000270 a2 37 f6 3e 69 f3 ff be 0a ef 5e bd f0 1d 32 3f
       0.4808932 -0.49990395 -0.054427184 0.6957693
000280 c5 5e 23 be df 14 fb 3d 4f 28 cf 3e a5 24 3c be
       -0.1595412 0.1225984 0.4046044 -0.18373354
000290 2a f6 95 3e 8d 19 1c 3f a0 5f a6 3e a2 e4 25 bf
       0.2928937 0.6097649 0.3249483 -0.6480199
0002a0 e0 c3 c3 3e 51 5f 09 bd 78 d2 2a bf 4c c3 29 3f
       0.38235378 -0.033538166 -0.667274 0.66313624
0002b0 74 91 31 3f 02 7d 97 be 37 3d 3c 3e 90 ab e2 be
       0.6936257 -0.2958756 0.18382727 -0.44271517
0002c0 6e 76 83 bd ed 07 2d bf 72 79 59 bd 9f 28 bc 3e
       -0.06419073 -0.6759022 -0.053094335 0.3674974
0002d0 15 34 01 bf 86 e1 fd 3e d4 c2 fd 3d 16 6e 21 3d
       -0.50470096 0.49586123 0.12390676 0.039411627
0002e0 04 6f fb be f9 ca e0 3e 6e ad 1d 3e 7c d4 73 3d
       -0.49108136 0.43904856 0.1539819 0.059528813
0002f0 bc f2 33 bf 60 9d f0 3e 44 c3 0c 3f c5 aa 0f be
       -0.7029226 0.46995068 0.5498545 -0.14029987
000300 d1 fd 2c be 87 e9 ba 3e b4 77 09 bf d2 8f 3f be
       -0.16893698 0.36506292 -0.5369828 -0.18707207
000310 e9 a5 d2 3e c8 e2 e1 be f6 1c 0e bd 44 8b 13 3e
       0.41142204 -0.44118333 -0.034695588 0.14408594
000320 b7 55 ca be 89 d9 97 be b6 fa 3a 3d 97 16 d5 bc
       -0.3951852 -0.29658154 0.045649253 -0.026011748
000330 9e 10 95 3e 8f 86 15 3e f3 00 1f bf a2 8b ac be
       0.2911424 0.14602111 -0.62110823 -0.3370028
000340 40 00 0e 3f 57 3c 81 3e 07 16 09 3f b9 6e 9a 3e
       0.5546913 0.25241348 0.53549236 0.301626
000350 fe c4 54 3e 94 95 b6 3e 7a 25 b0 3e e0 fb b0 3e
       0.20778272 0.35660994 0.34403592 0.34567165
000360 fc 63 19 bf 96 e0 a3 3e 26 f7 6a be fe 6d 21 bf
       -0.5991819 0.32007283 -0.22945842 -0.6305846
000370 cd 61 d5 be e9 81 17 bf 3e 56 b6 bc ee 09 29 3f
       -0.4167618 -0.591826 -0.02225792 0.66030777
000380 96 54 96 3e 67 91 3d 3e 42 8b 07 3f 84 c8 00 be
       0.2936141 0.18512498 0.52946866 -0.1257649
000390 98 3f 5d be 80 62 8b bd ed d5 31 3f 58 fb 64 be
       -0.2160629 -0.06805897 0.6946705 -0.22361505
0003a0 82 2d 09 3f 48 0c f2 3e 3b 8d f4 3e fb b2 0d 3e
       0.53585064 0.47274995 0.47764 0.13837807
0003b0 52 ed 02 bf 1d bb df bd 00 b2 4a be 39 58 7f bd
       -0.5114337 -0.10924361 -0.19794464 -0.062339995
0003c0 52 3c f6 3e b5 f4 2a 3e c1 5c 36 bf 10 f2 87 be
       0.48092896 0.16694911 -0.7123528 -0.26551867
0003d0 b9 50 e8 3e 1a 96 2b 3f 61 20 7f be 7d f3 90 be
       0.45374086 0.6702591 -0.24914695 -0.28310767
0003e0 a8 0d e1 3e d5 10 a0 3e b0 a4 d7 3e f4 f2 d4 be
       0.4395573 0.31262842 0.42117834 -0.4159161
0003f0 99 21 1f bf eb bc 96 3d 78 bc f2 be 3a 64 41 3e
       -0.6216064 0.07360252 -0.47409415 0.1888589

hidden.bias f4 [200]
000000 96 7d 1d bf af 15 7a bf e8 e4 3d bf e8 52 1c bf
       -0.61519754 -0.97689337 -0.7417741 -0.61064005
000010 4e bd 82 3d 42 26 83 3f 46 05 96 be fa f2 28 3f
       0.06383763 1.024605 -0.29300898 0.6599575
000020 7c cb 2d 3f b9 0f 1a 3f b4 f6 0a bf 35 5c 3e 3f
       0.6788862 0.6018024 -0.5428269 0.74359447
000030 08 15 1e be 5a 3f e0 3a 79 f3 37 bf 8f 82 b5 3e
       -0.1543771 0.0017108724 -0.71855885 0.3545117
000040 4d d5 34 bf bc 59 78 3e df e1 45 3f be 07 06 3e
       -0.7063797 0.24252981 0.77297777 0.13088891
000050 5f ac c5 bc 90 ad 33 3e e0 97 07 be 48 74 ef 3d
       -0.024130045 0.17546678 -0.1324153 0.11692101
000060 c4 74 f7 be 0a e4 1d bf a7 4b 1a bf 0e 94 0c 3f
       -0.48331273 -0.61676085 -0.60271686 0.54913414
000070 95 ec a2 bd 83 c9 16 3f ee ec 13 bf 55 b2 96 3e
       -0.07955281 0.5890123 -0.577834 0.29432932
000080 ee 66 a5 be b4 aa 76 3f 7e b8 43 3f ce 94 e5 be
       -0.32305092 0.9635422 0.7645339 -0.4484009
000090 19 ee e5 3e 9c 69 c1 3d b1 66 03 bf 12 45 9c be
       0.44908217 0.094439715 -0.5132857 -0.30521446
0000a0 bb de 1e 3f 64 51 02 3e bf 22 5c 3e 73 02 31 3f
       0.6205861 0.1272636 0.2149763 0.6914436
0000b0 51 51 92 be 05 01 83 be 23 bb 86 3e cc b5 e6 be
       -0.28577664 -0.25586715 0.2631465 -0.45060575
0000c0 de ab 3f be 7f 46 e0 bd cb d0 7f 3d c9 46 9c be
       -0.18717906 -0.10950946 0.06245498 -0.30522755
0000d0 81 f1 78 bf cb d1 aa 3d 05 fb c5 be cc 80 38 bf
       -0.97243506 0.08340796 -0.38668075 -0.7207153
0000e0 f2 46 88 3d ff fb b2 be 35 12 54 3d 6f 10 5f 3e
       0.06654157 -0.34957883 0.051775176 0.21783613
0000f0 6d e3 9d 3e c7 08 ad bd c2 a1 aa 3e e9 1d 11 bf
       0.30837575 -0.0844894 0.33326536 -0.56686264
000100 57 25 00 3e 68 7e b6 3e 40 bd c8 3e 8f 5c e4 3e
       0.12514244 0.35643315 0.39206886 0.44601867
000110 10 47 8d be 88 8a 21 bd 94 98 34 bf 0d 79 99 38
       -0.2759328 -0.039438754 -0.70545316 7.318156e-05
000120 16 d4 e3 3e d1 14 43 3b d0 d5 21 bf 88 c6 06 3f
       0.44497746 0.0029767046 -0.63216877 0.52646685
000130 b0 77 d7 be a5 66 2b bf bb 7f 10 3f 68 5d bf be
       -0.42083502 -0.669535 0.564449 -0.3737595
000140 ca 4e b4 be ef 4e e2 3e 63 9e 2b 3e b2 5f 3d 3e
       -0.3521636 0.44200847 0.16759638 0.18493536
000150 3c b4 14 3f 6a 78 10 bf 5d df a8 be 10 18 7e be
       0.58087516 -0.5643374 -0.32982913 -0.24813867
000160 bd b7 40 be 98 4a 91 3e 88 41 91 be d8 d8 00 bf
       -0.1882009 0.28377223 -0.2837031 -0.5033088
000170 0a 6d 88 3c 85 29 98 3f c7 3b 37 3f ac 47 57 bd
       0.016653556 1.1887671 0.7157559 -0.052558586
000180 c6 cc e6 be 0c 8f 45 bf 9a b1 e5 be 08 43 89 be
       -0.45078105 -0.771714 -0.44862062 -0.26808953
000190 9e a2 ad 3e a0 c8 ac 3e 21 bc 54 3e 18 f9 d7 3e
       0.3391313 0.33746815 0.2077489 0.4218223
0001a0 fb 2e 40 be e4 0d af 3e 30 65 3b be b8 f0 a2 3e
       -0.18767922 0.34190285 -0.18300319 0.3182428
0001b0 16 13 19 be 0e e1 58 bd f7 7f d7 3e 29 f4 9f 3e
       -0.14948687 -0.052949004 0.42089817 0.31240967
0001c0 93 c7 36 bf fe 96 c7 bd 14 68 61 3f b7 0a bb be
       -0.71398276 -0.09745596 0.88049436 -0.36531612
0001d0 ea 70 46 3c 3b b7 04 3f 46 ef 11 bf f8 7f 4e 3f
       0.012111882 0.5184209 -0.5700573 0.80664015
0001e0 91 6b 13 3f 04 bf 7f 3f 1d b7 30 3f 05 e9 3b bf
       0.5758601 0.9990084 0.6902941 -0.73402435
0001f0 11 03 38 bf 39 7b 13 3e a8 e2 45 bf 9f f4 28 3f
       -0.7187968 0.14402474 -0.77298975 0.6599826
000200 73 ff 33 bc b8 64 31 3e fd 1a 04 3c bd 1b c5 be
       -0.010986197 0.17323577 0.008063075 -0.38497725
000210 89 4c 3c 3f 70 90 4a bd 47 1a 3d 3d ab a0 3c bf
       0.73554283 -0.049454153 0.04616764 -0.7368266
000220 c0 6d e9 be c7 71 04 bf 41 7c 14 bf 0e 6a 09 3f
       -0.45591545 -0.5173611 -0.58002096 0.5367745
000230 df 14 70 be ec 3d 45 3f ec d4 09 be 89 1b be 3f
       -0.23445462 0.7704761 -0.1346013 1.4852153
000240 62 f0 db be 3f ae e0 3e 46 d3 22 be 09 cf 92 bd
       -0.42956835 0.4388294 -0.15900907 -0.07168395
000250 29 89 f7 3e 67 42 9c 3e c1 dc 60 be 48 20 81 3e
       0.48346832 0.3051941 -0.21959211 0.2521994
000260 12 f2 fd be 8d 16 0e bf 1b 63 39 bf ef bc 44 be
       -0.49598747 -0.5550316 -0.7241685 -0.19212697
000270 ae a7 07 bf 36 bc 11 bf 89 33 ae 3e f9 52 9a be
       -0.52990234 -0.5692781 0.34023693 -0.30141428
000280 63 6c 17 3f cb 67 10 bf f2 88 9b bf ea ad d8 be
       0.5914976 -0.56408376 -1.2151167 -0.42320186
000290 7b f6 2d be a4 fc 25 3d c3 c5 25 bf b1 f1 6f be
       -0.16988556 0.04052414 -0.64754885 -0.23432042
0002a0 0f 62 20 be 4e ee 89 3f 96 54 8b 3e f5 4e 89 be
       -0.15662406 1.077585 0.2721297 -0.26818052
0002b0 75 94 3a 3f b4 ea 95 3d 12 51 9d bc 31 b9 1d bf
       0.7288278 0.07320157 -0.019203696 -0.61610705
0002c0 49 e9 1d 3e a0 d0 c1 3e 38 a4 97 3e 0c 76 09 bf
       0.15421022 0.3785448 0.29617476 -0.5369575
0002d0 73 51 f4 bd 40 92 4d 3f 12 5e 0d 3f 46 a5 74 3d
       -0.11929598 0.80301285 0.55221665 0.05972793
0002e0 a7 64 55 be 27 ae 47 3f b4 9f 0b 3f 68 e4 d6 3e
       -0.20839177 0.7800011 0.5454056 0.41971135
0002f0 7e 7d cb be df 5d 3b 3f 3b 13 ee be e5 a7 33 bf
       -0.3974418 0.7319011 -0.46499047 -0.7017806
000300 00 b7 d8 3e 9b 7c 25 3f e5 c4 11 bf 62 ff f2 be
       0.42327118 0.6464326 -0.5694106 -0.47460467
000310 c3 41 c0 bd 9a 61 27 3f bf 50 28 bf 3e 81 2d bf
       -0.09387543 0.65383303 -0.6574821 -0.6777533

output.weight f4 [1, 200]
000000 14 f8 9e 3d 29 e6 41 3f d9 19 01 3f 65 08 48 3e
       0.07762161 0.7574182 0.50430065 0.19534452
000010 15 45 a7 bd 1e e9 61 3f 20 c4 d6 3c d9 03 8c 3d
       -0.08167473 0.88246334 0.026216567 0.068366714
000020 8d cd 6d be a2 82 c0 be 91 08 a6 3d 35 f8 8f be
       -0.23222943 -0.37599665 0.08107103 -0.28119054
000030 08 4d 8a bd 2e 11 da bb 60 ad bb 3e 14 62 1f bd
       -0.06752974 -0.00665488 0.36655712 -0.038911894
000040 5e e1 40 be cc 66 31 bd dc 40 0a 3f bf 1c c8 bd
       -0.18835971 -0.043310925 0.5400522 -0.09771108
000050 aa 0e ac bc aa 61 0a 3d 18 3b 83 bd 62 a7 ac 3b
       -0.021003086 0.033784546 -0.064077556 0.005268977
000060 34 3e 62 be 37 7a 29 be 05 ea a0 bd 35 9b e2 bd
       -0.22094041 -0.16550528 -0.07857136 -0.1106476
000070 e9 e4 2e 3d bb 1a a4 3e 4b 99 84 bd f8 cf 93 be
       0.042698774 0.32051644 -0.06474551 -0.28869605
000080 54 5a 65 3d bb fd 5d bf 05 a6 13 bf 23 6e f2 3d
       0.055994347 -0.86715287 -0.576752 0.11837413
000090 75 09 50 bd ba 62 de 3c 28 3c 90 3e 20 93 86 be
       -0.05079027 0.027146686 0.28170896 -0.26284122
0000a0 eb 94 f8 bd e2 50 9e 3d 84 1a 39 bd 0f ef 52 3d
       -0.12137779 0.07730271 -0.045191303 0.051497515
0000b0 fd 42 92 3c 18 9d 3f bd 1b 86 88 3d b5 3c f5 3d
       0.017854208 -0.046780676 0.066662036 0.119744696
0000c0 2f 31 14 bd 48 54 72 3d 03 e8 c8 3d 7f c6 3d 3e
       -0.036179718 0.059162408 0.09809878 0.18532752
0000d0 2a 1c 21 bf 43 d9 48 bd 97 66 85 3d db 0e cc 3d
       -0.629336 -0.049035322 0.06513708 0.09963771
0000e0 70 73 b0 3c 13 5d 62 bc 33 f4 74 bd 00 af eb bd
       0.02153942 -0.013816136 -0.0598032 -0.11507988
0000f0 10 a7 ec bd b0 a2 8b 3c 37 eb 82 bd 67 82 16 be
       -0.11555302 0.017045349 -0.0639252 -0.14698182
000100 fc ed 06 be 6a c3 2b be f7 bb 81 3d b5 a5 9a 3e
       -0.13176721 -0.16773763 0.063346796 0.3020455
000110 b6 2d 97 3d f8 93 94 bd af a1 4f be 7a 53 5f 3d
       0.073817655 -0.07254785 -0.20276521 0.05452297
000120 c8 85 02 be a5 76 de 3c db d5 f2 3c 00 cd d7 3d
       -0.12746346 0.027156183 0.02964299 0.105371475
000130 0e 59 f7 3d cb 95 a8 3c 92 37 6f bd 1a 96 47 3d
       0.12077533 0.02057924 -0.058402605 0.048727132
000140 6c 06 95 bd 76 46 71 3e b9 6c 75 3d 45 4e 72 3d
       -0.072766155 0.23562035 0.05991814 0.059156675
000150 03 9c 52 be 9e 29 82 3c a9 4d 17 bd 4a 76 06 3d
       -0.20567326 0.015888985 -0.036939297 0.032827653
000160 77 99 b8 3d 0d 69 37 bd ac 72 f8 bc 1b b7 2e 3e
       0.09013646 -0.04477792 -0.030328117 0.17062037
000170 1b ce bd bd 18 75 7f 3f 71 0a 51 3e e8 d0 74 3d
       -0.09267827 0.99788046 0.2041414 0.05976954
000180 58 6b 1d 3d 87 0b fe 3e 8c ab 82 bd 18 a6 1a 3d
       0.03843245 0.4961817 -0.06380376 0.037756056
000190 e3 54 ed 3d 98 1d 7b be 08 d1 04 3e 3e 8c 75 be
       0.115884565 -0.24523008 0.12970364 -0.2397928
0001a0 05 e3 fc bd 7f 80 70 3e 21 be 7a 3d 5d 9a ca 3d
       -0.12347988 0.23486517 0.061216477 0.09892724
0001b0 b2 c2 f1 3d 1c 05 25 3d 8b 7d 0b 3d f1 7d e7 3c
       0.11804713 0.040288076 0.034055274 0.028258296
0001c0 9c 9f 97 3e 4e e3 dd 3d 2e 22 14 3f 58 05 1a 3d
       0.2961396 0.108343706 0.57864654 0.037602752
0001d0 b0 7c 8f 3d e0 79 8b 3e 12 7c cb 3e 3f 5b 04 3f
       0.07006204 0.2724142 0.39743096 0.5170173
0001e0 bb 02 a8 3e b5 9e 40 bf 02 04 51 3d fc bd 83 3e
       0.32814583 -0.7524217 0.051029213 0.25730884
0001f0 12 7c 96 3e c8 ad e0 bc 04 57 41 be 2a 8b 71 be
       0.29391533 -0.027426615 -0.1888085 -0.23588243
000200 61 e7 59 bc 63 d1 e1 bd 6a b8 86 3d 11 f0 af bd
       -0.013299794 -0.110262655 0.06578143 -0.08590711
000210 34 f9 d2 3d a8 70 23 3c dd c6 8b 3d 6c db 79 3e
       0.10301438 0.00997559 0.068250395 0.24400109
000220 98 f9 77 bc 5e 8f 09 bd c0 6b 06 3d ed 3e 91 3d
       -0.015135191 -0.03358399 0.032817602 0.0709208
000230 a4 04 2d be ad bf db 3e 6b 26 92 3d 02 f4 a9 bf
       -0.16896302 0.42919675 0.07136234 -1.327759
000240 c9 8d 81 3e 82 aa 55 bd b8 15 12 3e a0 82 25 3d
       0.25303486 -0.052164562 0.14266098 0.040407777
000250 4a 9e 7d 3e 94 e1 2c 3e 35 cc 62 bd 44 82 a1 bd
       0.24767414 0.16882926 -0.05537053 -0.07886174
000260 0c 0a e5 3c 38 38 10 be f1 9c ab be 51 71 eb bc
       0.027958892 -0.14083946 -0.33518174 -0.028740557
000270 ed 55 b4 bc 4f ab 82 be c1 7d 84 bd ef 2a 28 bd
       -0.022013629 -0.25521323 -0.06469298 -0.04105657
000280 8b b8 a0 bd e8 f3 a5 3d 88 de 8f bf b4 bd 97 bd
       -0.07847699 0.08103162 -1.1239786 -0.0740923
000290 23 74 19 3e cc d8 21 bd 69 38 57 be 5d 97 e2 bc
       0.14985709 -0.039513394 -0.21017613 -0.027660066
0002a0 45 44 aa bc ed a5 72 3f 62 3b 86 3c 6c 97 27 3e
       -0.020784507 0.9478443 0.016385738 0.16366357
0002b0 e9 86 1c be 7a d0 06 3d 49 d3 6d 3d d6 b8 32 be
       -0.15285839 0.032913662 0.058062825 -0.17453322
0002c0 4c 26 d0 bc 2e f1 8a 3c 34 2f c0 bc a1 e0 d7 3d
       -0.025408886 0.016960707 -0.023460008 0.105408914
0002d0 ca f7 8e bd 95 e2 9b 3e 8c 6e 41 3d 61 7b 74 bd
       -0.06980856 0.30446306 0.047224566 -0.059687976
0002e0 fa 31 0e bc 3e 64 0d bf 8b 11 c6 3b 8e 5f 4e 3e
       -0.0086789075 -0.5523108 0.0060445718 0.20153639
0002f0 c2 92 0d 3e 15 99 5d be c9 6d 7d bd c2 a9 a5 be
       0.13825515 -0.21640427 -0.061872277 -0.32356077
000300 43 cc 62 3d d9 71 fe be a6 0e 9d bc 79 16 b3 bc
       0.05537058 -0.49696234 -0.019172024 -0.021861302
000310 18 9e 83 bd 8c 5e 82 bc 5d 8c f9 bd 5a 9d b8 3d
       -0.06426638 -0.015914224 -0.12184975 0.090143874
